Adhireddy Lakshman exp3.pt (torch, 244120 bytes, 10 tensors)

conv1.weight f4 [6, 1, 3, 3]
000000 59 bc fe be d3 03 17 bf 5c 6f d9 be 04 e6 d3 bd
       -0.49753073 -0.5899021 -0.42467773 -0.103466064
000010 a4 b4 76 3d e3 cd 3f 3e f2 e8 0e 3f 4c d1 a5 3e
       0.060230866 0.18730883 0.55824196 0.32386243
000020 1b 2d 4e 3e 49 f9 35 be bd 6d 13 3c e0 4d 07 3f
       0.20134394 -0.17770876 0.008998332 0.528532
000030 60 2c a4 3c 92 21 56 3e 94 42 49 3e a0 a2 1a 3e
       0.02004069 0.20911244 0.19654304 0.15101099
000040 64 b7 a3 3e b0 0b 88 be 6b f4 dd 3e 9c 46 4d 3e
       0.31975853 -0.26571417 0.4335054 0.20046467
000050 4d f3 43 bf 6b 8c 0d be 02 68 8b bf 50 84 95 bd
       -0.7654312 -0.13823096 -1.0891116 -0.07300627
000060 5d ef 18 bf e3 31 6d be 67 2c a2 3e 89 38 45 3d
       -0.5974024 -0.23163562 0.316745 0.04814962
000070 93 9e 9d 3e 18 67 9a be a1 06 56 3d 5f 6c dc 3e
       0.30785045 -0.3015678 0.052252416 0.4305143
000080 c7 dc 92 3d 4d 59 c8 3e fd 19 c2 3e fd 44 a6 3e
       0.07171016 0.3913063 0.37910452 0.3247451
000090 8f ab a2 3e 90 4d 9c 3e cf 2e 61 3e d6 98 a2 be
       0.31771514 0.30527925 0.21990512 -0.3175723
0000a0 e3 36 47 3e b6 fc 51 be a0 00 31 bf 51 6c 29 bd
       0.19454531 -0.20506558 -0.6914158 -0.041363064
0000b0 2e 83 3c 3d df b7 82 3d 6f 79 62 3e 67 8d cb be
       0.04602354 0.06382727 0.22116636 -0.3975632
0000c0 08 23 8e be 0b 74 82 3e 2b 58 b6 3e fb 8f a1 bd
       -0.27761102 0.2547916 0.35614142 -0.0788879
0000d0 4f 15 42 bd 34 ef 17 3e
       -0.047383603 0.14837343

conv1.bias f4 [6]
000000 b6 d6 8f 3d c0 0e 6a be aa 07 4e 3e 21 f5 90 bc
       0.07023375 -0.22857189 0.20120111 -0.017695012
000010 89 9f ac bc bc 5d 9a bd
       -0.021072166 -0.0753741

conv2.weight f4 [16, 6, 3, 3]
000000 5c 01 c2 be fa d3 ac bc 66 91 0a be 81 2f 12 3e
       -0.37891662 -0.021097172 -0.13532028 0.14275934
000010 45 a3 d6 3d fd dd 73 bd e7 9e c5 3e 8b 53 d3 3e
       0.1048036 -0.059537876 0.38597795 0.41274676
000020 e0 18 aa 3e 8a 22 44 bd 1f a1 5a 3e be f1 fc 3e
       0.33222103 -0.0478845 0.21350525 0.49403185
000030 bb d6 98 be f0 9b 51 be 9b d2 2a be e1 c5 b2 bd
       -0.29851326 -0.20469642 -0.16681902 -0.08729149
000040 f6 98 8d bd e3 de 7b bd 78 41 87 be e9 b5 73 bd
       -0.069139406 -0.06149186 -0.26417136 -0.059499655
000050 2f 93 98 bd 68 de 6e be 76 40 49 bd a3 6c 71 3d
       -0.07449948 -0.23327029 -0.04913374 0.058941495
000060 d4 e9 c7 bd 9d 8c 05 3d 5e df 42 be 05 14 7d 3c
       -0.09761396 0.032604802 -0.1903052 0.015446668
000070 89 b6 1f 3e 35 df 4e 3e 9a 34 02 bf 42 2d ed be
       0.15596975 0.20202334 -0.50861514 -0.4632359
000080 0c 1d dd be 70 24 cf 3d 74 66 a4 3d 8b 59 8b 3d
       -0.43186224 0.10114372 0.08027354 0.06804188
000090 4f 90 86 3c e4 9b 29 3e 29 6f f5 ba e5 f2 aa 3c
       0.016426234 0.16563374 -0.0018725145 0.020867774
0000a0 91 a5 b5 3e 36 b0 25 3e 9a cf 5c be 8f 97 c4 be
       0.3547788 0.161805 -0.21563569 -0.3839688
0000b0 57 1d 2d be 48 5d d1 3d 0b b8 57 3e 83 a2 16 3e
       -0.16905724 0.1022287 0.210663 0.14710431
0000c0 c8 85 28 bf d6 7d 80 3d ab 60 20 be cb 31 0f 3e
       -0.65829134 0.06274001 -0.15661876 0.13983838
0000d0 20 35 8f bc 7c aa e6 3c f0 d7 ea 3e 90 5c ce 3e
       -0.017481387 0.028157465 0.45867872 0.40304995
0000e0 9b 38 9f be 26 46 e1 bd c7 30 4c 3b fd 23 f4 3d
       -0.31097874 -0.10999708 0.0031157003 0.11920927
0000f0 72 c5 7d 3e d7 23 00 3e ba 3d 10 3e f2 32 b2 bd
       0.2478235 0.12513672 0.14086047 -0.08701123
000100 80 49 90 bd 28 e7 a6 be db 4c 86 bd 7f a2 f5 bc
       -0.07045269 -0.32598233 -0.06557628 -0.02998471
000110 b8 91 ea bc 83 6f f4 3d 1d 61 4e 3e e0 2e 52 3e
       -0.028633937 0.11935332 0.20154233 0.20525694
000120 f3 01 6d 3c f7 f4 da bd 68 4e 2d be 13 f3 af be
       0.014465797 -0.106912546 -0.16924441 -0.34365138
000130 18 75 dd bd ee 9b d1 be 0a 74 f3 bc bf c4 8c be
       -0.108133495 -0.40939277 -0.029718418 -0.27493855
000140 1d 40 01 bf 0e 11 e1 bd d3 0d bc bd 59 3f e8 be
       -0.50488454 -0.10989581 -0.09182324 -0.4536083
000150 c2 69 39 3e a3 26 b8 3d 9d b9 fd 3d 31 67 3e 3e
       0.1810675 0.08991744 0.123889185 0.18594052
000160 dd 32 c4 3b b4 50 2b 3d c8 48 6a be 7c ff 2d 3c
       0.0059875087 0.04182501 -0.22879326 0.010619994
000170 61 2f 93 3d 55 c8 84 be 1d f1 c3 bd f4 95 91 be
       0.07186771 -0.2593409 -0.09567473 -0.28434718
000180 a6 00 9d bd f9 c1 19 3e d6 88 bc 3e 6a a8 8c 3b
       -0.07666139 0.15015401 0.36823148 0.0042925375
000190 3b c7 a8 bd 7e 5d ae be a4 2d 7e bd 3e 10 69 3d
       -0.08241125 -0.34055704 -0.062055245 0.056900255
0001a0 77 b0 e8 3d 0e 13 1d bd fb 4e f5 3d 30 0b 6b 3e
       0.11361783 -0.03834825 0.11977955 0.22953486
0001b0 78 6e cc 3e ee bc 17 be 7a 2e 8a be 7b 1c 8a 3d
       0.3992803 -0.14818165 -0.26988584 0.067437135
0001c0 d6 c6 14 bf 1a 0d 1b bf 71 91 bc 3d d2 ff 84 be
       -0.581159 -0.60566866 0.09207428 -0.25976425
0001d0 31 8e de be 57 aa 3a bd da 2a 1c 3e f0 5d ef 3b
       -0.43467858 -0.045572605 0.15250722 0.0073048994
0001e0 c1 65 30 be 8f 18 04 3c 54 ab 1d bd 59 2b 9e be
       -0.17226316 0.008062496 -0.03849347 -0.30892447
0001f0 de e1 c9 bd 8e bc 6c 3d ea 99 a1 3c 84 e0 62 be
       -0.09857534 0.057797007 0.019726712 -0.22155958
000200 cb 32 4a be 7f b9 43 3d c3 fc 2d be 48 44 8e bf
       -0.19745938 0.047784325 -0.16990952 -1.1114588
000210 55 e8 cd bd 82 48 d4 bd 5d f1 03 bf 7f 91 82 be
       -0.100540794 -0.10365392 -0.51540166 -0.2550163
000220 21 33 11 bd e8 bb 6b 3d 98 1c b6 be 1e bc 49 bd
       -0.03544915 0.05755225 -0.3556869 -0.04925167
000230 8c b2 04 3e 10 d2 a3 3d dc 9a 4b be 94 de b9 3c
       0.12958735 0.079990506 -0.19883293 0.022689141
000240 61 73 a6 3d bb 69 84 3e 7b 03 5c 3e 72 88 70 be
       0.081274755 0.25861916 0.21485703 -0.2348955
000250 8b 29 15 3e 17 d7 48 3e d9 c7 b2 be 2f bd a3 bd
       0.14566629 0.196133 -0.34918097 -0.07995068
000260 23 17 4a 3e 89 46 42 be 79 10 1f 3e b5 ad d5 3d
       0.19735388 -0.1897222 0.15533628 0.104335226
000270 7e b7 ae be 2f 55 6c 3c a6 11 6f 3e e2 59 0f 3c
       -0.34124368 0.014424606 0.23346576 0.008749457
000280 9b ac 49 be 41 dc 6a 3d 1e ef 12 bf ba 6a 66 be
       -0.1969475 0.057338957 -0.57396114 -0.2250165
000290 fe 7c ea bc 3a c7 f5 be a9 e4 10 bf 0d 8c 5f be
       -0.028624054 -0.4800356 -0.5659891 -0.21830769
0002a0 15 4e ad 3d 42 9a d9 be 3c 33 81 3e 7f 4f db bd
       0.084621586 -0.42500502 0.252344 -0.10708522
0002b0 b0 9f af 3d ee 6b a8 bd 07 e4 e3 bd ba 7f 2e 3e
       0.0857538 -0.08223711 -0.11127477 0.17040911
0002c0 80 e0 14 be e9 41 1a bd ca 25 9d 3d 7f 1b 4b 3e
       -0.14538765 -0.037660513 0.07673223 0.19834708
0002d0 8f 17 5e be 8f be 5e bd 7a bf 49 3e 14 75 28 be
       -0.21688674 -0.05438095 0.19701949 -0.16450912
0002e0 6f e2 f3 be 29 eb 05 be 7a f9 f4 bd 1e 7b 27 bf
       -0.47633693 -0.13077988 -0.119616464 -0.65422237
0002f0 60 11 66 bf 33 95 03 bc ef da c7 3d 52 97 4f 3d
       -0.8987026 -0.008031177 0.09758555 0.05068142
000300 4c df 0b be 0c 78 21 3e 78 22 b8 3d d9 c1 73 bd
       -0.136594 0.1576845 0.089909494 -0.05951104
000310 a0 55 95 3e e1 bb 9c 3e 36 1a 53 be d6 50 84 3c
       0.2916689 0.3061209 -0.20615467 0.016151827
000320 d0 44 f5 be e1 db 17 be eb fd 48 3e b0 f3 e8 be
       -0.47904062 -0.14829971 0.19628112 -0.4549842
000330 86 a4 0e be b5 8e 47 3e 7b a4 a1 bd 2b c4 fc bd
       -0.13929948 0.19488032 -0.078927 -0.123421036
000340 0a e8 d1 3d e7 e5 8e bd 78 bd dd 3d a5 1f 8f 3d
       0.10249336 -0.06977444 0.10827154 0.069884576
000350 22 f2 70 bd 11 49 4c be 34 85 11 3e ed 29 c8 3e
       -0.058824666 -0.19949748 0.14210969 0.39094487
000360 ac fb 02 be da a1 c2 3e a3 63 0e 3e 33 d4 07 3e
       -0.12791318 0.38014108 0.13905196 0.13264541
000370 6f da b3 bd f3 21 eb 3e e3 bf 43 bc e0 5c a7 be
       -0.08781897 0.4592434 -0.011947605 -0.32688046
000380 e1 a0 25 bd 08 43 08 3e bc 22 1a be f6 93 3a be
       -0.04043663 0.1330682 -0.15052313 -0.18220505
000390 22 31 0d 3e ad e7 1f 3e 17 02 be bc 4a 25 9f be
       0.13788274 0.15615721 -0.023194356 -0.31083137
0003a0 10 ea 20 be 6d 40 93 3d 78 00 98 3d 46 36 3a be
       -0.15714288 0.071900226 0.074219644 -0.18184766
0003b0 ff 8b 6e be 18 39 ce bd d5 e2 0f bf 0d f7 d0 be
       -0.23295592 -0.100694835 -0.56205493 -0.40813485
0003c0 e9 a2 c7 3d df 7d d9 be 60 a5 e0 be 81 25 72 3e
       0.097478695 -0.42478845 -0.4387617 0.23647119
0003d0 9c 54 b5 3d 12 38 af be c3 0b 1c be 7c eb 47 3e
       0.088540286 -0.34222466 -0.15238862 0.19523424
0003e0 08 a5 a3 3d 04 ca df be b9 00 cd bc e7 ef a6 3e
       0.079904616 -0.43708813 -0.025024759 0.32604906
0003f0 17 bd 69 be 59 0d 8f be dc 61 43 3e ec c0 b8 bd
       -0.22826038 -0.2793987 0.19080299 -0.09021172

conv2.bias f4 [16]
000000 68 b4 58 bd f3 7c b5 3c fd 25 16 3e 19 0c a7 bc
       -0.052906424 0.022154307 0.14662929 -0.02039151
000010 73 19 1c bd 2d 2c 67 be 56 0b 9d be 20 42 f0 bd
       -0.038110208 -0.22575445 -0.3067271 -0.11731362
000020 9a 00 78 be 59 e3 b8 bd ba 2e 5b 3c 85 77 88 be
       -0.2421898 -0.09027738 0.01337784 -0.26653686
000030 8f 49 da bc c4 01 a4 bd d6 64 8f 3d 7d 0c 95 bd
       -0.026646404 -0.08008149 0.07001655 -0.072777726

fc1.weight f4 [120, 400]
000000 96 f4 06 3d 62 20 6c 3d 98 f9 c0 3d b1 c0 12 3e
       0.0329481 0.05764807 0.09422606 0.14331318
000010 8a 84 27 3e 4a 74 52 be 91 7d dc be 0e c1 6b bd
       0.16359153 -0.20552173 -0.4306455 -0.05755716
000020 3f 90 b9 3e 0c 6f c5 3e 2c e9 d2 3c 9c ad 94 be
       0.36242864 0.38561285 0.02574595 -0.29038703
000030 0e 0d d7 bd e0 29 b9 3e 89 00 82 3e 1c 28 31 3e
       -0.10500537 0.3616476 0.25391033 0.17300457
000040 b3 c5 d6 bd 7c 40 c4 bd 82 6b d2 bc c7 66 09 3d
       -0.10486927 -0.09582612 -0.02568603 0.03354528
000050 e0 51 a1 3d 4a ff 80 be ca c2 07 bd 39 14 5f 3c
       0.078769445 -0.2519477 -0.03314475 0.013615661
000060 23 d7 2d be 9b c7 d2 bd c2 32 34 be 80 aa 14 be
       -0.169766 -0.10291978 -0.17597488 -0.14518166
000070 84 37 0a be d7 00 84 bd 09 80 07 ba de 66 65 bc
       -0.1349774 -0.06445473 -0.000516892 -0.014001576
000080 72 90 bf bc 93 59 51 bd 87 e7 53 bc 14 8b 2e be
       -0.023384307 -0.051110815 -0.012933618 -0.17045242
000090 d7 cd 03 bd 3b 96 8a 3e 71 13 7a 3e 4a 8e 06 3e
       -0.032178726 0.27067742 0.24421479 0.13140216
0000a0 b0 1a 63 3d 38 9b b9 bc c7 18 99 bb cf 31 99 bd
       0.055445373 -0.022657022 -0.004672143 -0.07480203
0000b0 f0 3e c3 3c 19 e5 83 be 33 76 98 be b1 85 e2 bd
       0.023833722 -0.25760725 -0.2977768 -0.11060656
0000c0 7c a8 1b be 07 ca de 3d 84 d9 cb 3e 0f 9c fc 3d
       -0.1520099 0.108783774 0.3981439 0.12334453
0000d0 f2 cf d0 bc e5 76 01 bd a5 e9 20 bc 5e 61 2b 3e
       -0.025489781 -0.031607527 -0.00982133 0.16736361
0000e0 aa cf b2 bd a8 2a 59 be a5 92 18 be 35 cf 6c be
       -0.08731015 -0.21207678 -0.1489969 -0.23125918
0000f0 66 be 07 3e 82 34 5f 3e 62 29 eb bd 0e 7c 9e be
       0.13256225 0.21797374 -0.114825025 -0.3095402
000100 31 9e cf be 07 72 24 3e 00 48 96 3c c7 0f 12 be
       -0.40550378 0.16059123 0.01834488 -0.14263831
000110 68 5c c5 bd 19 b7 a1 be d9 d3 1f 3d 8c d4 c9 3c
       -0.09636766 -0.31585005 0.039020393 0.024637483
000120 4c d4 79 bd f8 fb 5c be 31 2a de be 96 77 66 3d
       -0.060993478 -0.21580493 -0.43391564 0.05626639
000130 82 f1 67 bb 2b ce 1c be ba 5d a1 bd 0b 81 b2 bb
       -0.0035391753 -0.15313022 -0.07879205 -0.005447512
000140 96 8c f6 3d cd 32 3d 3e 37 14 dc bd 25 c3 ed be
       0.120385334 0.1847641 -0.10746043 -0.46437946
000150 5b 61 04 bd ba 4e 11 3e 04 28 8a 3e 67 51 02 3e
       -0.032319408 0.14190188 0.26983654 0.12726365
000160 75 1c 92 be d7 64 39 be a8 ea e8 3d 5c 1c 59 3d
       -0.28537336 -0.18104874 0.11372882 0.05300556
000170 65 ef 0e bc 43 18 4f 3d 44 c3 0a be 0b 7a d0 3c
       -0.008724068 0.050560247 -0.1355105 0.02544882
000180 c8 d9 3d 3e 20 79 9e 3d 09 3d 0c be ab 09 80 be
       0.18540108 0.077379465 -0.13695158 -0.25007376
000190 92 37 32 bd 48 ab 85 be 12 da f9 be ce fe 55 be
       -0.043510027 -0.2610724 -0.48799187 -0.20897982
0001a0 ef d8 12 bd 44 2e 82 3d 65 23 26 be 73 ec e3 be
       -0.035851415 0.06356481 -0.1622444 -0.44516334
0001b0 ce 13 80 bd 93 4e 00 be 8e 7c 1a 3e b0 41 92 3e
       -0.062537774 -0.12529974 0.15086576 0.2856574
0001c0 a4 b2 93 3d 3b fe 11 be 01 85 13 3e fa f9 a6 bb
       0.07211807 -0.14257137 0.14406206 -0.0050957175
0001d0 9c d8 22 3e 71 de ad bd 6d 83 3c 3d 5e ac 0a 3e
       0.15902942 -0.08489693 0.046023775 0.13542315
0001e0 4b 85 08 be ca 1e 9f 3d ba 13 57 bc 00 81 e9 bc
       -0.13332097 0.077695444 -0.013127262 -0.028503895
0001f0 84 73 be be 00 e6 e5 3d 12 63 d4 3e 20 37 55 3e
       -0.37197506 0.1122551 0.41481835 0.2082181
000200 c5 96 b6 3e 30 8a 84 3e c9 4c 7e be 45 09 38 3e
       0.35661903 0.2588668 -0.24833979 0.17972286
000210 85 da fa 3d 42 51 f5 3d 94 51 6a 3b e4 a7 82 be
       0.122487105 0.11978389 0.003575419 -0.25518715
000220 04 48 44 be a5 96 89 3d 46 b5 89 3e b3 dc b9 bc
       -0.19168097 0.06718186 0.26896113 -0.022688245
000230 d1 fb 61 be d4 c1 78 3d ae d6 9f bd 38 c3 6c 3d
       -0.22068717 0.060731724 -0.07804619 0.057803363
000240 66 b3 c7 3d 67 84 42 be 26 9c 06 be dd 7e 2b 3c
       0.097510144 -0.1899582 -0.13145503 0.010467258
000250 b8 fc 99 bc 2f 2c 9a 3d 00 4c 88 3e f6 f0 6e 3e
       -0.018797264 0.075279586 0.26620483 0.23334107
000260 9f 73 61 3d 15 11 90 3d b0 55 b2 bd 69 bf c2 bd
       0.055041905 0.07034508 -0.0870775 -0.09509165
000270 f1 88 6d 3e 46 eb 13 3e ef 61 46 3e 38 05 57 be
       0.2319677 0.14445218 0.19373296 -0.20998085
000280 a3 fe 38 be 27 78 ba bb 6a 8f cf 3d 1b 63 63 3d
       -0.18065886 -0.005690593 0.10134776 0.055514436
000290 a9 cf 68 3c e7 9b ee bd e7 0a 52 3e 31 f6 49 3e
       0.014209666 -0.1165083 0.20511971 0.19722821
0002a0 50 60 2e bd 1d 96 ee 3c 84 59 a3 3d ea fd 55 be
       -0.04257232 0.029124314 0.07976058 -0.20897642
0002b0 55 67 86 be 3d f9 0f 3e 5e 1e 98 bc 23 53 30 3d
       -0.2625071 0.1405992 -0.018569168 0.043048035
0002c0 4a 89 16 bd a0 87 f9 3c a2 2f 1f bd 18 e7 3c bd
       -0.036752023 0.030460179 -0.038863786 -0.046118826
0002d0 f3 58 cc bb 00 d4 9a bb bd 12 ad bc 90 a1 88 bc
       -0.0062361895 -0.0047249794 -0.0211271 -0.016678602
0002e0 18 a6 3b 3d 3b 44 10 bd 9f 36 0a 3d e3 3f 39 3d
       0.045812696 -0.03522132 0.033743497 0.045226943
0002f0 e3 c8 e9 bc d5 96 1f bd 6d b3 09 bd 9a 9c e5 bc
       -0.028538173 -0.038962204 -0.03361838 -0.028028775
000300 7d 29 1d 3d 5d f8 1f bd f5 22 18 bd 30 a3 ce 3c
       0.038369644 -0.039055217 -0.037142713 0.025224298
000310 ea 50 85 bc d3 08 4c 3c 10 61 c5 bc f3 16 af 3c
       -0.016273934 0.012453276 -0.024094135 0.021373248
000320 f6 1a 92 3d db 8a 9f 3e 74 b8 52 3e 85 fe 2a 3e
       0.07134049 0.31160626 0.20578176 0.16698654
000330 46 dc 7d 3e 2d b4 a3 bd 80 3a 92 bd f9 62 8e 3d
       0.24791059 -0.0799335 -0.07140064 0.06952471
000340 6a 9f 87 3c d2 2f b9 bd 89 07 cc bd 94 46 8d bd
       0.016555507 -0.09042324 -0.09962375 -0.06898227
000350 dc e6 48 3d 97 89 e0 3c 7b cb 05 3d ed b3 7b 3d
       0.04904829 0.027409358 0.032664757 0.061450887
000360 59 e6 b7 3d 14 f7 05 3e 84 19 1f 3e 46 ac 8e 3d
       0.08979482 0.13082534 0.15537077 0.06966452
000370 62 3b 37 be e2 e8 78 3d 9d 46 cb bd 89 ff 23 3d
       -0.17893746 0.06076897 -0.09925578 0.04003862
000380 89 76 80 3d b9 62 80 bd 06 a5 1d 3e 0d f0 08 3f
       0.06272609 -0.0626883 0.15394983 0.5349129
000390 37 42 34 3e 10 fb b9 3e 96 86 6e 3e e5 54 e9 3e
       0.17603384 0.36324358 0.23293528 0.45572582
0003a0 af 3d 12 3e 3f 11 81 3d 7a d3 0f 3d 63 ff 17 3e
       0.14281343 0.063021176 0.03511379 0.14843516
0003b0 35 ed e8 3a 9b fd 0f be 75 33 c5 3c 79 77 21 be
       0.0017770889 -0.14061587 0.024072388 -0.15768231
0003c0 b9 58 eb 3d c3 28 48 be 90 c3 66 be 68 4d 30 be
       0.11491532 -0.195468 -0.22535539 -0.17217028
0003d0 ed 6b 98 3c 83 f2 17 be 7b 47 a8 be 9c 2d 23 be
       0.01860615 -0.14838605 -0.32867035 -0.15935367
0003e0 4a d8 ab 3d c7 ba 2b 3e 7e 6d 3e 3d 0a 3a ce be
       0.08390863 0.16770469 0.04649114 -0.40278655
0003f0 25 b9 a2 bd 52 e0 14 bc a2 48 67 3e f3 6e d8 bd
       -0.0794547 -0.009086685 0.22586301 -0.10568037

fc1.bias f4 [120]
000000 76 16 99 3d f0 47 0b 3d 85 09 9c bc 24 34 cc 3c
       0.07474987 0.03400415 -0.019047508 0.024927206
000010 a1 2d 63 3d 49 3f 87 3c fd 6d 3f bd c7 04 38 be
       0.055463437 0.016509669 -0.046735752 -0.17970572
000020 fc 2a a7 bd 3a 7a 1e bd c0 c5 7c bd bd 1f c9 3c
       -0.081624955 -0.038690783 -0.061712027 0.024551267
000030 09 09 fa bd a6 85 e7 3d 32 54 a8 bc f6 3b b6 bc
       -0.122087546 0.11304788 -0.02054796 -0.022245388
000040 23 1b 34 3d 6a 48 db 3c d2 02 1b 3e 92 d7 54 bd
       0.043971192 0.026767928 0.15137795 -0.051963396
000050 28 82 9b 3d 8a ae ac 3b 8b be 91 3c ad 02 ce bc
       0.07593185 0.00526983 0.017791053 -0.02514776
000060 2d 0f 74 bc 2e 65 1a be 3a 98 9b 3d 65 b0 50 bc
       -0.014896196 -0.1507766 0.07597394 -0.012737368
000070 9e 46 32 bd fb 85 e0 bd 13 c2 ea bc 70 01 30 bd
       -0.043524377 -0.10963055 -0.028656995 -0.04297012
000080 3f 43 1c bd 62 a6 fd 3c 7d f6 9b 39 8a f5 3a 3d
       -0.03815007 0.030963127 0.00029747552 0.04564432
000090 50 9f d0 3c 67 4e 97 3c 14 79 aa bd 8a fe c9 bc
       0.025466591 0.018470002 -0.08323875 -0.024657506
0000a0 71 15 1b bd 08 f2 bc bc ef b9 29 bd b4 10 ce bd
       -0.037862245 -0.023064628 -0.041437086 -0.100617796
0000b0 3a c0 9c bd e6 c3 b5 bc 11 44 23 3c bd 6f b1 bc
       -0.07653852 -0.022188138 0.009964959 -0.021659726
0000c0 ca af b7 3c 16 60 12 be 01 19 d7 bd 59 40 c4 3d
       0.02242269 -0.14294466 -0.10502816 0.09582586
0000d0 3c f2 bb 3c 5a 91 38 bd fe 6c b0 3d 2e 7f 30 3d
       0.022942655 -0.045060493 0.086145386 0.043090038
0000e0 f0 2b 48 3d 63 6c ac bc 71 e6 11 bd aa 55 09 be
       0.048870027 -0.021047777 -0.035620157 -0.13411584
0000f0 57 ff 67 bd 7f 04 8d bd aa 69 67 bc 30 3c 3a 3d
       -0.056639995 -0.06885623 -0.014124313 0.045467556
000100 bb 50 93 bd 9d d1 89 3a c7 6d c0 bd 56 0d 35 3d
       -0.071931325 0.001051474 -0.09395938 0.04420217
000110 b9 ed 22 bd 5c 95 0a be e1 fa 09 3d 37 fe db bc
       -0.03977749 -0.13533539 0.033686522 -0.026854618
000120 3e 32 87 3c e4 b0 31 bd ad 7c b6 bc e2 e3 20 3b
       0.01650345 -0.043381587 -0.022276247 0.0024549891
000130 01 7d 13 bd 77 a6 c2 bc 00 2d f9 bc 27 be 99 3d
       -0.036007885 -0.023761017 -0.030416965 0.07506972
000140 67 1b 89 bd a2 43 da bd 45 eb 0c be 8d 8f 91 bd
       -0.0669468 -0.10657431 -0.13761623 -0.07107458
000150 c7 bb 78 3d 6d 31 b6 3b 26 5f fd bc 61 bc 84 bd
       0.060725953 0.005560091 -0.03092916 -0.06481243
000160 c2 66 4c be a2 b2 4c 3d 33 e0 57 bc 0f 19 51 3d
       -0.19961074 0.049975045 -0.013176012 0.05104929
000170 73 b3 39 bd 3f 62 8b bd f2 e7 18 bd 42 c0 16 ba
       -0.04533715 -0.06805848 -0.037330575 -0.00057506945
000180 5d 59 98 3b 72 f4 a3 bc 62 a6 62 bd 6e 6e b1 bd
       0.004649325 -0.020014022 -0.055334456 -0.08663641
000190 3a e8 30 3d 6b 4a aa bc 21 19 1d bd fc a8 fc bd
       0.04319022 -0.020787438 -0.038354043 -0.12336919
0001a0 fb 3d 32 3d 89 b2 dd bd 91 12 bd bc 06 5a b6 bc
       0.04351614 -0.108250685 -0.023080142 -0.022259723
0001b0 2b 54 db bd 70 30 c0 3c 51 9e df 3a d8 4e 2d 3b
       -0.10709413 0.023460597 0.0017060732 0.00264447
0001c0 b5 3c 78 bc 3a 4d 90 3d 1c 25 30 bc 8a b9 0a bd
       -0.015151192 0.0704598 -0.010751035 -0.03386835
0001d0 d4 1f 14 3d 47 36 97 bc eb 84 83 3c 68 ce 99 3b
       0.036163166 -0.018458499 0.016054591 0.004693795

fc2.weight f4 [84, 120]
000000 bf d4 9b 3d a9 1e ed bd 40 c0 83 bd b7 2a 12 3c
       0.076089375 -0.115781136 -0.06433153 0.008921317
000010 d7 af 2f 3d 69 9c 19 3c 3a e4 a5 bd 48 a0 f1 bc
       0.042892303 0.00937567 -0.081001714 -0.029495373
000020 e9 14 99 3d 05 60 15 bb 42 e9 9f bd 99 b1 22 be
       0.074746914 -0.0022792828 -0.07808162 -0.1588806
000030 0d 47 5f 3c 95 a2 43 bd 3f cb ac bd 32 fb 77 bd
       0.01362778 -0.047762472 -0.084372036 -0.060542293
000040 3e 5d e1 bd b3 d9 ab bd f8 c0 54 bd 9e 14 b1 bc
       -0.11004113 -0.08391132 -0.05194184 -0.021616276
000050 93 d5 a3 bd 80 1f 0b bd e9 04 31 3d 1a 48 2f 3c
       -0.079997204 -0.033965588 0.043217573 0.010698343
000060 3b 69 5a bd b8 09 56 3d cf a8 38 bd 9c 92 ce bc
       -0.05332301 0.052255362 -0.045082863 -0.025216393
000070 98 46 53 3d f9 94 64 bc fd 90 83 3d 08 4e 16 be
       0.051580995 -0.0139515335 0.06424139 -0.14678204
000080 e8 f1 38 3d 73 67 91 3b 36 d4 0a bd 34 b1 4c 3d
       0.045152575 0.004437381 -0.033893786 0.04997368
000090 73 78 41 3d 3c 0c 83 3d 80 03 b9 3b d7 71 ae bd
       0.04723401 0.06398818 0.005646169 -0.08517807
0000a0 25 de b6 bd a4 00 d7 bc 05 d9 8d 3d a7 b4 51 bd
       -0.089290895 -0.026245423 0.06926159 -0.051197674
0000b0 64 bc 79 bc b8 a1 a0 bd f7 08 b8 3c 88 fe 92 bc
       -0.01524267 -0.078433454 0.022465212 -0.017943636
0000c0 7c e5 0f bd 23 4e 82 bd 07 40 85 3d 8e b0 ab bb
       -0.035130963 -0.0636256 0.06506353 -0.005239553
0000d0 ec d1 8d 38 16 df fe bc c5 73 31 bc b6 16 e1 3c
       6.762505e-05 -0.031112235 -0.010830824 0.02747665
0000e0 98 fa 91 bd 61 71 92 3d d7 1c a7 3d e7 41 1d 3d
       -0.07127875 0.071505316 0.08159798 0.038392927
0000f0 97 44 db 3c c5 67 b5 bd 6b 2b 65 bc 00 30 9b bd
       0.026766105 -0.08857683 -0.013987402 -0.07577515
000100 f4 02 45 bd 2d 2d cd 3c d5 c3 d6 bc 18 41 7a bc
       -0.04809852 0.025045956 -0.026216427 -0.015274309
000110 05 70 c3 3b b1 0e 2e 3b 93 7b 62 3d ef 1f 9f 3c
       0.0059642815 0.002655905 0.05529363 0.019424407
000120 3e 62 62 bd 06 24 e9 3c a4 a9 31 3d 30 d3 c2 bd
       -0.055269472 0.02845956 0.043374673 -0.09512937
000130 6a 84 fc bd 92 44 bf bc 85 78 44 bd db 67 dc bc
       -0.123299435 -0.023348127 -0.0479665 -0.02690499
000140 9b cb 19 bd c7 e0 db bc e6 f7 bc bd 4b b8 05 bb
       -0.03754769 -0.02684058 -0.092269704 -0.0020404037
000150 45 5a 80 bd 2c bd b8 bd 93 da 9a bd 8f c1 d4 bd
       -0.062672175 -0.09020457 -0.07561221 -0.10388481
000160 cb b3 54 bd ba a8 6d bd cc c0 21 bb 94 22 8b 3c
       -0.051929276 -0.05802224 -0.0024681566 0.016984262
000170 48 6e 5d bd 04 df d7 39 04 1b b4 bd 7e dd f8 3c
       -0.05406025 0.00041174155 -0.08794215 0.030379053
000180 96 75 26 3c 6e 6e ab 3d 75 a0 34 bb 28 1f 98 bc
       0.010159871 0.08370672 -0.002756146 -0.018569544
000190 f0 90 d1 bd 3c de c4 3b ad e8 81 3d bc 08 13 be
       -0.10232723 0.0060079377 0.063432075 -0.143588
0001a0 d7 11 00 bd e0 12 bd bd dd 74 2d bd 76 a9 01 3d
       -0.031267013 -0.09232116 -0.042347778 0.03165575
0001b0 fd 06 d7 bd 64 70 27 3d 80 08 c3 bc 50 b6 97 bd
       -0.1049938 0.04087867 -0.023807764 -0.0740782
0001c0 13 6b 8e bd 47 f7 97 bc b6 6c ad bd eb 8e 96 3d
       -0.069540165 -0.018550528 -0.084680006 0.07351478
0001d0 b4 ca d6 bd 47 78 ba bc 83 d0 07 bc e5 9b 32 3c
       -0.10487881 -0.02276243 -0.008289459 0.010901426
0001e0 4b a1 04 bf 54 66 08 3e 5a 83 6f bd a8 86 a1 bd
       -0.51808614 0.13320285 -0.058474876 -0.07887012
0001f0 a1 68 a3 bc ec 2f f6 3c b4 df 66 3c 5d 2b 09 3d
       -0.019947352 0.030052148 0.014091421 0.03348862
000200 7b 2c fa 3c c6 d6 96 be 34 19 4b 3d d2 14 8a 3d
       0.030538788 -0.29460734 0.049584582 0.067422524
000210 22 dc d1 3d ac c1 80 be f3 ea df bb 90 4e d9 bb
       0.10247065 -0.2514776 -0.006833428 -0.00663168
000220 4c b8 70 3d a9 48 98 3d 02 8e 3c be ec fb 98 bd
       0.05876951 0.07435734 -0.18413547 -0.07469925
000230 17 e0 ad 3d c9 a5 e3 bd 6d be ad bd 15 16 89 bb
       0.08490007 -0.111156054 -0.084835865 -0.0041835406
000240 89 c1 85 bc 3a a1 39 3d 74 ad 53 be ef f3 93 3e
       -0.016327636 0.045319773 -0.20671636 0.28897044
000250 0b 15 94 3c b8 0c ba 3d 3c 6a 8b 3d d8 ee 88 3d
       0.01807644 0.09084457 0.06807372 0.06686181
000260 70 24 4a 3d a9 c9 b9 bd 0f 10 90 39 09 a2 d4 be
       0.049351156 -0.09071667 0.00027477785 -0.41529873
000270 08 95 ab bc cb c5 c2 bc e1 fa b2 3c f8 e1 5b bd
       -0.020945087 -0.023775956 0.021848144 -0.053682297
000280 de e5 1b bd 5f 2d b0 bb dc b3 e4 3c c2 c9 99 bc
       -0.038061015 -0.0053765024 0.027917795 -0.018772963
000290 99 49 50 bd 88 d9 0f bd b7 19 1e 3d b9 91 25 3e
       -0.05085144 -0.035119563 0.038598742 0.1616887
0002a0 bc 13 b7 bb 9e 4a 59 3e 78 fe 07 3e 6a 60 2d 3d
       -0.0055870693 0.2121987 0.13280666 0.042328276
0002b0 79 31 2f 3d d3 72 af bc 01 de d9 3b 79 61 aa bd
       0.04277179 -0.021417057 0.0066487794 -0.08319373
0002c0 a8 46 84 be 92 18 2d be 10 ae e7 3d 46 ed d0 3d
       -0.25835156 -0.16903904 0.11312497 0.10201506
0002d0 1e ea 62 3d 5a 25 ba 3d 93 7d f2 3d b0 1a 83 3e
       0.055399053 0.090891555 0.11840358 0.25606298
0002e0 c6 97 17 3c f3 25 a5 bd 05 87 10 bd 36 b6 86 3d
       0.009252494 -0.08063879 -0.035285015 0.06577723
0002f0 ed cb 8a bd 61 41 9e 3d ad 6e 33 3c 3d 83 e3 bb
       -0.06777177 0.07727314 0.01095168 -0.006943135
000300 58 6d 18 3e af cc c0 3d af df 84 3c 70 a6 16 be
       0.14885461 0.0941404 0.016219942 -0.14711928
000310 3c ab 09 bd 5e dd b5 bc 11 01 c3 3d 4b 2e a9 bd
       -0.033610567 -0.022200283 0.09521688 -0.08260783
000320 53 22 eb 3d e2 23 32 3e 57 eb 9f 3d 4d 6b 18 3c
       0.11481156 0.173965 0.078085594 0.009302926
000330 5d 69 7b be dd 6e b2 3c 72 ab 19 bd bc 0c 6d 3c
       -0.24551912 0.02178138 -0.03751702 0.014468368
000340 56 2c b1 3b 02 5d b9 bc a8 12 f0 bd 5e 32 e5 3d
       0.0054068966 -0.022627357 -0.117223084 0.111912474
000350 c4 d1 82 3d 6c 47 ad 3d 7d 84 28 bd b2 97 fe 3d
       0.06387666 0.08460888 -0.041141976 0.12431277
000360 0a d1 e8 bb 22 7f d8 3a f7 e3 1b 3d 9b 08 3f bd
       -0.0071049975 0.0016517381 0.0380592 -0.046639066
000370 48 fa ec 3d 20 c0 83 bd 84 c6 cf bd 7e 1a aa 3d
       0.11571175 -0.06433129 -0.10145286 0.08305834
000380 69 eb 9c be e4 59 85 3c 01 95 86 bd 78 6a 65 be
       -0.30648354 0.016278215 -0.06571389 -0.22403896
000390 cc cc 81 be 4d 9b c9 bc dc 6a 72 bd e5 a9 2e be
       -0.2535156 -0.024610186 -0.05918394 -0.17056997
0003a0 fc e2 93 3d 4f 24 81 be f7 72 86 be ff e4 63 bd
       0.07221028 -0.25223014 -0.26259586 -0.05563831
0003b0 60 57 86 be ac 11 8f 3e 55 89 95 3d 18 52 56 3b
       -0.26238537 0.2794317 0.07301585 0.003270274
0003c0 db 4a c0 bb fd ae e4 bd 33 52 92 bb d1 fa 60 3d
       -0.0058682985 -0.11166189 -0.0044653653 0.054926697
0003d0 3e 0f f0 bd 6c 2e 66 3d e6 0f 97 3d 77 57 ba bd
       -0.11721657 0.056196615 0.07376079 -0.09098714
0003e0 fb 0f f5 3c df 9b c0 bc 08 70 07 3d f0 ab cc bc
       0.029914847 -0.023511825 0.033065826 -0.02498433
0003f0 38 19 48 bd 13 83 ac bd 95 c5 0a 3d de a4 9f bd
       -0.048852175 -0.08423438 0.033879835 -0.07795118

fc2.bias f4 [84]
000000 52 4b 79 bc 24 3a 9d bd 60 e0 07 be bf 16 a4 bd
       -0.015215712 -0.07677105 -0.13269186 -0.08012151
000010 9a 5f e4 bd 61 88 c6 bd 7f 25 84 bd 4a 6f b6 3d
       -0.11151047 -0.09693981 -0.06452464 0.089079455
000020 1f 1f 25 3e cb 29 40 3e 80 31 5c bd 2e b1 83 bd
       0.16125153 0.18765943 -0.053758144 -0.06430279
000030 84 9e d5 bd 29 0e 33 3e ad 8e 6c bd 82 58 4d 3d
       -0.10430625 0.1748587 -0.057753254 0.050133236
000040 40 0e bb 3d da 7a 1e bc ea 6a 44 3e 75 47 a6 3d
       0.09133577 -0.009672845 0.1918141 0.08119098
000050 47 70 b6 3d c8 56 e7 bc d6 f9 76 bd ee e4 05 3e
       0.08908134 -0.028239623 -0.060296856 0.13075611
000060 0a 50 b4 bd bf 65 b7 bc f2 00 62 3e 3c 19 23 bd
       -0.08804329 -0.022387384 0.22070673 -0.039818987
000070 8c 8d 5a 3d d5 91 f7 bd bd c2 4d 3c 29 ae b5 3c
       0.053357646 -0.12088362 0.012558636 0.022177773
000080 d9 c8 98 be f6 a7 8b bd de f6 a7 3d 7a b5 c7 3d
       -0.29840735 -0.068191454 0.08201383 0.09751411
000090 01 e9 ec bd 03 17 46 3c 40 77 12 be 16 b7 34 be
       -0.115678795 0.012090447 -0.14303303 -0.17647967
0000a0 56 bd b5 bc b3 51 97 bd 49 36 71 3b aa e2 62 bd
       -0.022185009 -0.0738863 0.0036806038 -0.055391945
0000b0 9b 1a 27 3e 46 31 2c 3c c3 1d d3 3d f6 4d d9 3c
       0.16318743 0.010509795 0.10308411 0.026526432
0000c0 f1 5f 38 3d 69 e9 2b ba f0 77 e3 3d d5 8d 1a 3e
       0.04501337 -0.0006557913 0.11106861 0.15093167
0000d0 32 12 2d be d2 d7 37 3e a9 68 20 3c 66 ee 90 bc
       -0.16901472 0.17953423 0.009790578 -0.017691802
0000e0 42 27 a9 3c 6b 47 0d 3d 5e 9d 9d 3d 96 ea 8f bd
       0.020648602 0.034491938 0.07696031 -0.070271656
0000f0 af 54 9e bd 50 35 7b bd c7 7e c4 3d cc 1e d1 bc
       -0.07730996 -0.06133014 0.09594493 -0.02552738
000100 a4 d1 b8 bc 64 0b 34 bd 30 72 e3 bd 42 ad a8 bb
       -0.022560902 -0.043956175 -0.11105764 -0.005147607
000110 c5 84 06 3d a1 fb c0 3c 74 c3 de bd 61 5b 9b bd
       0.032841463 0.023557486 -0.108771235 -0.075857885
000120 52 1f 1e 3c c4 96 7d bc 14 25 fd bd bc 50 14 3d
       0.009651022 -0.01547784 -0.12360588 0.036209807
000130 7a d7 d6 3c 96 8c 4f 3e ba 26 7f bd 1e 78 62 be
       0.026225794 0.20268473 -0.062292792 -0.22116134
000140 b5 52 c3 bd f6 9a 2c bd d1 6e 02 3e 40 05 5c bd
       -0.095372595 -0.04213997 0.12737586 -0.053715944

fc3.weight f4 [10, 84]
000000 08 60 80 3d ac 5e 7b 3b 3d 6b 6d bd 7a 2a 67 bc
       0.062683165 0.003835599 -0.0579636 -0.014109248
000010 e9 93 e0 3d ef c7 46 3b d5 60 02 bf a6 76 a4 3d
       0.109657116 0.0030331572 -0.50929004 0.08030443
000020 ce cb d6 be 4a 27 a3 3d 15 83 9e bc 2b a3 15 be
       -0.41952366 0.07966478 -0.019349614 -0.14613025
000030 a3 4c cc be c7 35 fe be d6 cb 4f bf 92 60 56 3d
       -0.3990222 -0.49650404 -0.81170404 0.05233819
000040 70 57 1e 3e af 6e 35 3e 60 0c c8 3d 6a a6 48 be
       0.15463042 0.17718004 0.09767985 -0.19594732
000050 66 2e 43 3e 6f ba 0c bd bc 5d bb bb c2 a5 f3 3d
       0.19060668 -0.034357484 -0.005717961 0.1189685
000060 42 ef 92 be f3 77 90 be 68 67 cb be 86 5f 50 be
       -0.28698164 -0.28216514 -0.3972733 -0.2034894
000070 3c 51 0e be b9 e4 ae bd 47 96 8d be f6 ae 34 3d
       -0.13898176 -0.08539719 -0.27653715 0.04411217
000080 f2 25 ad be 85 cd a0 be 8d 82 10 bf 3c ed e1 be
       -0.33818012 -0.314068 -0.56449205 -0.44126308
000090 b4 2c 05 3e 1a 30 fb 3d 9a 07 6a 3b 3d 16 de be
       0.13005334 0.12265034 0.0035710097 -0.4337634
0000a0 49 9a 49 3e af 01 7f be e1 fe a0 bd 34 87 18 bf
       0.19687761 -0.24902986 -0.07861114 -0.59581304
0000b0 06 f9 d8 bd 03 b0 12 bf 75 c5 75 be 95 70 ed 3c
       -0.105943725 -0.5729982 -0.24001105 0.028984347
0000c0 cd d5 f2 3d 5f 77 77 be cd b5 c4 be 79 69 10 be
       0.118571855 -0.2416663 -0.38419953 -0.14102735
0000d0 c3 e1 99 3d 45 27 e5 bc ea 70 11 3e 3c b9 87 3d
       0.07513764 -0.027972827 0.1420323 0.066271275
0000e0 c4 19 70 bf 48 55 54 bb dc 4a 96 be 24 5c a4 bc
       -0.93789315 -0.0032399464 -0.29353988 -0.020063467
0000f0 2a ed 58 be 18 b8 dc bd 9b d1 ae be 94 da 2e 3e
       -0.21184221 -0.107773006 -0.3414429 0.17075568
000100 b7 c5 0d 3d 14 6a 28 be 75 c1 b0 be 82 6f d1 3c
       0.034612384 -0.16446716 -0.34522596 0.025565866
000110 22 f4 eb ba d3 3b 68 be 17 cf 7d be 27 7b e0 3d
       -0.0018001834 -0.22679071 -0.2478603 0.109609894
000120 ce 85 0a bf b8 51 60 be f6 6a 26 bf 08 14 e8 3c
       -0.5411042 -0.21906173 -0.6500696 0.028329864
000130 87 0b 32 be 53 bc e2 3d d6 60 13 bf fe 13 06 be
       -0.1738721 0.11071076 -0.57569635 -0.13093564
000140 2c cb e1 bc e4 c2 39 be f5 e0 07 be 98 31 5f 3d
       -0.0275627 -0.18140751 -0.13269408 0.054490656
000150 30 e3 75 bd b9 4b 95 be 50 0b 3d 3d 41 25 9e be
       -0.060031116 -0.29159334 0.046153367 -0.30887797
000160 74 f7 af bd 00 d8 73 3d f2 6c dc be 1e 44 fe 3d
       -0.0859212 0.059532166 -0.4305187 0.12415336
000170 b6 c1 b8 3d 44 8f 80 be 02 f9 34 3d 67 eb c2 bc
       0.090213224 -0.25109303 0.044182785 -0.02379389
000180 d2 14 a4 bd 81 38 02 bc 50 78 83 be 15 25 45 3d
       -0.08011784 -0.007948042 -0.2567773 0.048131067
000190 fa e4 ef be 88 cf 8e bd 8b c4 9a 3d 4c 6e 8d be
       -0.46854383 -0.06973177 0.07557019 -0.27623212
0001a0 66 58 04 be 54 53 8e 3d 3b fb dc bd a3 85 e5 3d
       -0.12924346 0.06949487 -0.10790106 0.1120713
0001b0 b4 d6 c5 bd 37 8e 97 be 72 cb da be 15 93 31 3e
       -0.09660092 -0.2960069 -0.4273334 0.17341264
0001c0 41 3b f0 bd 29 95 f8 bd b4 75 a3 be 3b 27 c8 bd
       -0.11730052 -0.12137825 -0.31925738 -0.097731076
0001d0 d2 0d 2c 3d 27 22 c3 be 2a cc 4c 3e a1 4b 6c 3c
       0.042005368 -0.38111994 0.19999757 0.014422328
0001e0 de f1 61 3d 95 89 d5 bd 2e a4 7d be bb 51 37 be
       0.055162303 -0.10426632 -0.24769661 -0.17902271
0001f0 ab 30 94 be 99 b2 a1 be 78 be 80 be 4b 3b 22 3d
       -0.2894338 -0.31581572 -0.25145316 0.039607327
000200 a6 3c cf bd 9f c2 c5 3d 02 bd 95 be 92 49 f7 be
       -0.1011899 0.09656262 -0.29245764 -0.48298317
000210 26 62 10 be 8e 9f 47 3d c3 96 57 3e 6e 64 2c 3e
       -0.1409994 0.048736148 0.21053605 0.16835186
000220 85 79 a6 bc 22 fb 43 be 89 f9 ed 3c e9 05 c9 be
       -0.020321617 -0.19138768 0.029049652 -0.39262322
000230 35 03 92 3d d3 2b 1e bf db 64 76 3d ec a9 01 be
       0.07129518 -0.6178562 0.060154777 -0.12662476
000240 74 47 b6 3e a0 6a 6f be 17 2a 4f 3d 2c 95 0c bf
       0.3560139 -0.23380518 0.05057725 -0.5491512
000250 59 a9 3a bf d7 2e 82 be 71 e2 85 3e 1a 55 10 3d
       -0.72914654 -0.2542636 0.26149324 0.03523741
000260 b5 0a f7 be 12 09 03 3e 95 5a 82 3e 56 22 b2 3d
       -0.48250356 0.12796429 0.25459734 0.08697955
000270 2e 34 d8 3c 4e 6c 7c be 50 8e 17 3e 58 f4 d8 3d
       0.026392069 -0.2465069 0.14800382 0.1059348
000280 fb f5 52 be 18 eb d2 3d e7 95 d3 bd 5d b6 91 be
       -0.20601647 0.10298747 -0.10331326 -0.28459445
000290 d6 6c 7d be 8e 39 58 3d d7 a9 08 bf 60 7e 64 3e
       -0.24748549 0.052789263 -0.53384155 0.22313833
0002a0 34 87 96 bd 59 fd 1d 3d 3e 8f db bd d5 dc 3a bf
       -0.07350007 0.03857169 -0.10720681 -0.7299321
0002b0 54 8b 3c 3d aa ca e1 bc 16 d9 11 3e ed 89 2c 3e
       0.04603131 -0.027562458 0.14242968 0.1684949
0002c0 cc 37 28 be ab e5 47 bc 6b dc 8c bd 7f 38 36 be
       -0.16427535 -0.012200753 -0.06877979 -0.17794989
0002d0 36 49 10 3d 17 54 8a be 13 0f 81 bd 43 9e 4f bd
       0.03522607 -0.2701728 -0.06301703 -0.05068804
0002e0 36 97 26 3e 4c 6f 9e be fc 98 1c bd b6 8b 9a be
       0.1626862 -0.30944288 -0.038231835 -0.30184716
0002f0 34 5d b7 bd c9 c8 b2 3c 78 99 1a 3d 25 64 be be
       -0.08953324 0.021824257 0.037744015 -0.3718578
000300 3b bc 26 be c0 e9 25 be e7 fc 0a 3e ad f2 06 3e
       -0.16282742 -0.1620245 0.13573037 0.13178511
000310 91 66 20 3e 6c 8a 03 bf 18 b9 1b 3e 0d 72 38 be
       0.15664126 -0.5138309 0.15207326 -0.18012257
000320 ea fa 99 be 62 b5 79 be 19 77 52 be 4d fc 02 3d
       -0.30074245 -0.24385598 -0.20553245 0.031978894
000330 ca fb 00 bf 7d 58 4a be 8b e2 04 be 46 ef 82 be
       -0.503842 -0.19760318 -0.12977044 -0.25573176
000340 cc 08 13 3e 7a 60 8b be d5 d9 d6 be 3c fd 06 3e
       0.14358824 -0.27222043 -0.41963068 0.13182539
000350 8e ac b2 3c 28 69 a0 be 0f 59 eb bc 50 0c 90 bd
       0.021810796 -0.31330228 -0.02872899 -0.070335984
000360 74 55 7f be c8 32 95 be f4 85 d7 be 26 00 66 be
       -0.24934942 -0.29140306 -0.42094386 -0.22460994
000370 71 2a 3a 3d 2b 35 81 be f2 26 be bd 2a 90 c3 3c
       0.04545063 -0.25235876 -0.09284772 0.023872454
000380 06 ca 4e be b5 32 1b be 8a e1 8d bd a0 33 08 bc
       -0.20194253 -0.15156062 -0.06927784 -0.00831309
000390 e3 ff 04 be b8 a5 9d bd 8c 67 56 3e 35 91 6e be
       -0.12988238 -0.07697624 0.20937937 -0.2329758
0003a0 cb 28 ee be b4 45 4c 3e 15 02 1b be 81 c3 87 3e
       -0.46515498 0.19948465 -0.15137513 0.26516345
0003b0 00 32 24 bd fc e6 9f bd 64 d6 0d be 58 7f 3a 3e
       -0.040086746 -0.07807729 -0.13851315 0.1821264
0003c0 92 14 6e bd 59 da 9a be 90 f7 3b be 68 78 aa 3c
       -0.058125086 -0.3024471 -0.18356156 0.020809367
0003d0 3a 13 0f be 77 0c 9b be 38 88 b0 bd 2f 84 2a be
       -0.13972178 -0.30282947 -0.08619732 -0.16651987
0003e0 b5 0e a5 3c a0 b3 79 bd a5 d0 63 3e 87 16 66 be
       0.020148614 -0.06096232 0.2224756 -0.22469531
0003f0 9a 1b 81 3d 90 bc 54 3e c2 43 0e be 3c 4e b1 bd
       0.06304093 0.20775056 -0.13893035 -0.086575

fc3.bias f4 [10]
000000 78 b2 4d bd 6f 70 a8 bd fa 20 11 bd 0e 86 3a 3c
       -0.05021903 -0.0822457 -0.03543184 0.0113845
000010 b5 a8 cf 3c d1 de f2 bb d6 71 77 be ec 83 87 bd
       0.025349 -0.0074118157 -0.24164519 -0.06616959
000020 23 93 b1 3e cb ee 60 bd
       0.3468257 -0.05491523
